simple_app/local_min_cnn.tflite (tflite, 6052 bytes, 1 tensors)

model_1/gauss_prefilter/conv1d/ExpandDims_1 f4 [1, 1, 24, 1]
000000 c1 ca 35 3c ba c2 76 3c c5 e2 a2 3c 47 26 d1 3c
       0.011095704 0.015061075 0.019883523 0.025530947
000010 1b 99 02 3d 0e a1 1e 3d ee 65 3b 3d e0 51 57 3d
       0.031884294 0.038727812 0.045751505 0.052568316
000020 bf 9f 70 3d 82 c4 82 3d f1 3c 8a 3d c0 21 8e 3d
       0.058746096 0.06385137 0.06749905 0.06940031
000030 c0 21 8e 3d f1 3c 8a 3d 82 c4 82 3d bf 9f 70 3d
       0.06940031 0.06749905 0.06385137 0.058746096
000040 e0 51 57 3d ee 65 3b 3d 0e a1 1e 3d 1b 99 02 3d
       0.052568316 0.045751505 0.038727812 0.031884294
000050 47 26 d1 3c c5 e2 a2 3c ba c2 76 3c c1 ca 35 3c
       0.025530947 0.019883523 0.015061075 0.011095704
